cElegansModel.pt (torch, 25687 bytes, 6 tensors)

weight f4 [8, 1, 5, 5]
00000000: a489 6fbe 0c8d c9bb d9a9 09bc 213a b63c
00000010: dce0 003e dc0a df3e fc5a 17bd 5535 90be
00000020: 6e94 4f3e dcaf 0c3f 5e7a b53d 4f3e ea3e
00000030: 21ce 16be 967e fbbe ab57 fcbd 2839 8fbe
00000040: e1bc 353e 9f1a 823d b707 b4be a891 bcbe
00000050: 157b 3a3e 1a9f 13bc 61b2 d13c 42d6 aa3e
00000060: 4019 553f aab3 15be d121 3fbf 46d6 fc3e
00000070: 4081 4d3f cdb2 433d 2ca2 a73e 7990 9dbe
00000080: d5eb efbc 14fe ba3e 4a7e e1bd 0313 443f
00000090: 3d76 123f 4a26 55bf 23a5 f8be e6f2 16be
000000a0: 550c 283b ada1 8bbe 37c5 debd d2a7 233f
000000b0: e19e 773e 07a0 dc3b 9625 d6be 7562 403e
000000c0: 2cbf af3e 3754 f7bc da74 753e b56a a4bc
000000d0: 0c92 7abe eb53 133d 0e5b a53d 101b 013f
000000e0: 4dd9 813e 9431 88bd 8921 7d3e 3310 ef3d
000000f0: 24fd c1be 1ac6 87be 64c2 9d3d 8fa9 f1bc
00000100: f7c4 ab3c 6216 a8be c612 68bd 689c 0d3e
00000110: 0115 d6bc aec5 00bd 4feb bd3e d162 863e
00000120: 44bf c13d dfcf f7bc 89d6 00bc b7fd d4be
00000130: f18d a3be 929b b6be f24b a3be d29b cebe
00000140: 2b16 b8be 1ded debe 11cc 86be 491c c4be
00000150: d70f acbe eb7d b3be fe27 b2be 7b94 cdbe
00000160: 72ce bfbe 62b9 00bf 9107 97be ae89 94be
00000170: 77a0 e6be 22c0 c6be 27a5 a2be 664c 9cbe
00000180: 1e97 e8be feb3 abbe ce7c c1be 5a9a 9ebe
00000190: 91be aa3e 3498 b4bd db98 b23d 6692 943e
000001a0: 5b38 843e dd21 8dbe 2658 4bbe 17b5 173f
000001b0: d883 fa3e a021 0dbf 850d 7fbd ff2e 01be
000001c0: 1e08 1c3e 6c2c 6abe fc74 01bd 10a3 b23d
000001d0: 0049 113f b31e fbbe d86a 2ebf a48a 7d3f
000001e0: d26e 71be d80d 403f 503b 98bd 9e63 eabe
000001f0: fec2 d33e 9aea 1dbe 0028 21be 2f01 17be
00000200: f47c 72be 0b54 3cbe b6bb cebc e1fe 77be
00000210: 9315 febd f53c 56be 895f 3abe 637f 53bd
00000220: f27e 28be be2c 16be fa34 84be 145c 46be
00000230: 59b7 7ebe 2d2c 7f3b c585 5cbe cab7 52be
00000240: 5236 8bbe fe63 83be 80b4 30be 0b12 1fbe
00000250: 10c9 c6bd e489 6abe dd51 a33d dab7 783c
00000260: ec2b f13b 5e74 8cbd 012c ff3d 9dbe c7bd
00000270: c3c0 f4bd 2260 4dbe ec1f 0ebe 804b 6bbe
00000280: 3724 2abe 8267 66bd e2be a7bd 0aae afbd
00000290: 441d 863e e128 d63d 1b7e 1ebe 0d35 6f3e
000002a0: 12e6 793e 39f2 d9bd 3fc1 a2bd 3bc0 13bc
000002b0: 9d0b e23d ddf0 b4bd 9d30 bb3c 04bd d9bd
000002c0: 76a0 25bd d114 2cbe 322b 863c 2daa 08be
000002d0: 1240 3b3d de12 d8bd 46b0 9ebe 47d0 2fbe
000002e0: 540b 0d3e d5c1 59be c65b 20be a7f1 d0bd
000002f0: d4a7 50be 72be a7bd dd7c 92be 779c 69be
00000300: f08a 003d 375d 61bd 8d88 e3be 6cb3 5dbe
00000310: 832e 14be 6e3d 18be c3ab 19be debb 7bbe
-0.2339235 -0.0061508473 -0.008402311 0.022244515 0.12585777 0.43562973 -0.036952004 -0.2816569
0.20271465 0.5495584 0.0886123 0.45750663 -0.1472707 -0.49120015 -0.12321409 -0.27973294
0.17747833 0.06352734 -0.35162136 -0.36829877 0.18211015 -0.009010101 0.025597753 0.3336659
0.83241653 -0.14619318 -0.74660975 0.49382228 0.80275345 0.04777794 0.32740915 -0.30774286
-0.029287258 0.3652197 -0.11010416 0.7659151 0.5721167 -0.8326155 -0.4856349 -0.14741096
0.0025642116 -0.27271786 -0.108774595 0.6392795 0.24181701 0.006732944 -0.4182555 0.18787558
0.3432554 -0.030191524 0.23970357 -0.020070413 -0.24469775 0.035968702 0.08074008 0.5043192
0.253611 -0.06650081 0.24719824 0.11673012 -0.37888443 -0.26518327 0.07703093 -0.029499797
0.020967944 -0.32829577 -0.05665853 0.13829195 -0.026133062 -0.031438522 0.3709359 0.26247266
0.09460309 -0.030250488 -0.007863649 -0.4159982 -0.3194423 -0.35665566 -0.3189388 -0.40353256
-0.35954413 -0.43540278 -0.26327565 -0.3830283 -0.33605835 -0.35057005 -0.34796137 -0.40152344
-0.37462193 -0.5028287 -0.2949796 -0.2901129 -0.450443 -0.3881846 -0.31766626 -0.30527037
-0.45427793 -0.3353576 -0.3779053 -0.30977136 0.33348516 -0.08818093 0.08720561 0.29017943
0.25824246 -0.27564898 -0.19857845 0.59260696 0.48928714 -0.5512943 -0.062268753 -0.12615584
0.15237471 -0.22868508 -0.031605706 0.08722508 0.56752014 -0.4904686 -0.6813178 0.99039674
-0.23577431 0.75021124 -0.07433188 -0.45779127 0.41359705 -0.15421525 -0.15737915 -0.14746545
-0.23680478 -0.18391435 -0.025235992 -0.24218322 -0.12406459 -0.20921691 -0.18200506 -0.051635157
-0.16454676 -0.14665505 -0.25821668 -0.19371063 -0.24874629 0.0038936243 -0.21535404 -0.20577922
-0.2718988 -0.25662225 -0.17256355 -0.15534227 -0.097063184 -0.22904164 0.079745986 0.015180552
0.007359972 -0.06858133 0.12459565 -0.097531535 -0.11950829 -0.20056203 -0.13879365 -0.2297802
-0.16615377 -0.056251056 -0.08190705 -0.08578117 0.26194203 0.10457016 -0.15477793 0.23360081
0.24404171 -0.106419034 -0.07947015 -0.009017999 0.11037371 -0.088350035 0.022850329 -0.10631755
-0.04043623 -0.16804816 0.016378019 -0.13346167 0.0457154 -0.10550474 -0.3099386 -0.17169295
0.13773853 -0.21265347 -0.15660009 -0.102023415 -0.20376521 -0.081906214 -0.28610888 -0.22813593
0.0313825 -0.055020537 -0.44440117 -0.21650475 -0.14470868 -0.14867184 -0.15006928 -0.24583384

bias f4 [8]
00000000: 1cc8 17bf 3b3e b4bf 13df f0be d204 e3bf
00000010: 7447 9bbf 95be 8bbf 5092 f7bd d32f eebf
-0.5928972 -1.4081491 -0.47045192 -1.7735846 -1.2131181 -1.0917536 -0.12088454 -1.8608345

weight f4 [16, 8, 5, 5]
00000000: b93e 103d 069a 90bd b464 7abd daf4 d1bd
00000010: ccd8 0abe 4d5b 6abc f1e8 d8bd d215 babd
00000020: d51a cabd 3947 b2bd ae56 8bbc edc2 a9bc
00000030: f2d7 cebd e11b 233c b0d2 5ebd cc5d c53d
00000040: 83a7 2dbd e4ab 063e db87 c0bc 7327 b13a
00000050: 32bb 313e 2d1c 823c 463c 013e 7eed ab3d
00000060: 7ba2 32bd d98d 02bd d122 ecbc b636 18bc
00000070: d953 aebd 2944 9fbc 1f3d 2fbc 4091 e83c
00000080: 68df 67bb ffb9 c6bd ed8a 58bd 917e 343d
00000090: 0c17 233d d6cb d4bc 6dae 81bd 64b4 97bb
000000a0: cb34 163e c2f8 4fbd 49a0 38bd 1c42 9cbc
000000b0: 6f06 4ebd ac8f e03d 68e4 2a3e d03f b13a
000000c0: 4e7d 1d3d c317 a0bd 9993 1b3d 30ea 113d
000000d0: 9809 d1ba 3aa4 bfbd 7bd2 87bd be89 05bc
000000e0: 360b 9fbc 0d97 87bc b90b 39bc 8dae b8bd
000000f0: fd22 4cbd 5ffe 843d 07ec 25bc 7c15 16bd
00000100: 8a64 b03b cd71 fe3c 6080 b0bc 5e19 0dbd
00000110: 2d46 44bb bb8b a5bd 8704 e1bd 3d08 66bd
00000120: f740 a7bc ebf5 a53d 9a3f 71bd a06e ccbc
00000130: a8df 41bd 88ed 0abe 60d5 a3bd b847 d53c
00000140: 89ba c9bd 4bf3 ecbd 6bfa 25bd 5f91 41bd
00000150: 179b 2cbb e818 08be 4fe5 dbbd 3737 0abe
00000160: 366e 8fbc 875e a9bd 32bc 3bbe f506 1ebe
00000170: 8638 a0bd 8927 c2bd 9e88 88bd 36b4 23be
00000180: 9b35 1dbe d4a0 2abe b5dc cabd 8cd9 58bc
00000190: 5877 8bbc 075e 8b3d 30a1 a1bd be4a 6bbd
000001a0: 4136 b6bd 5a87 9e3c e4a8 b2bc 33c5 77bd
000001b0: 6b8c bfbc 0bb7 dabd 05dc 473e 799a 0bbe
000001c0: bb68 9dbc a2b1 b9bd e654 89bd 726e 833e
000001d0: 6761 55bb 6166 673d 803b 93bd f399 1fbe
000001e0: ec53 b9bd 8f25 053e 7e83 c7bd 2d28 33bd
000001f0: 6458 d3bd 2097 34bd 969b 2fbb 1404 f8bc
00000200: f9b6 5a3c 8792 dabc 3c3d 09bc b506 833b
00000210: 33e3 a4bd d85f 6ebd f4fd 61bc f2c0 76bd
00000220: 14d6 673c fe42 213d ffb3 413d d74c 773c
00000230: 1c8a e9bc 406a 83bd ef38 3b3d efb2 85bd
00000240: edf2 8fbc 206c f53c 833d cd3c cb0a 7b3a
00000250: b885 8d3d 33a7 053c 3ffa 00bd 7f88 34bd
00000260: 9e37 96bd 2af9 b13c 08b4 0dbd f73e ad3b
00000270: ccc7 0c3d 275c 003d cca1 453d 8975 4cbd
00000280: 512a 54bd 8da5 07bd a4fa 96bb aca1 493d
00000290: 1d5a 523c d805 8cbc 07f6 04bd 7253 8dbd
000002a0: 7489 2cbd 89fe 3bbd 01dd bdbc 9834 75bd
000002b0: e35c c1bc 6d5e 0a3d 4bb4 173c d4ed a2bd
000002c0: 3554 3ebd db30 88bd 705f b1bd 0f57 52bd
000002d0: 86c8 c33c a50c adbc c16b f7bc 9b8b 3dbd
000002e0: 779a f4bd cd61 6fbc 4d33 783d 002b 09bd
000002f0: 174b 91bd 9727 19bd 41b2 a43c 0ece 9e3d
00000300: d942 7bbd 815b 33bd 110d 1f3b 2aa9 a23d
00000310: 8abd b5bb 3705 6c3d 0a93 56bd 6ea0 97bd
00000320: 7719 55bd 5caa 5b3d 6d7c 9c3c 474f 403c
00000330: 7369 823d ad70 d6bc 707d 47bd 5b80 cbbc
00000340: baed 503d a6ea 8dbc 343b 3bbd 03ac 89bd
00000350: a3e3 313d d4ff 4c3d 359d 853d fc17 93bb
00000360: fb68 cb38 2651 c43c a3b0 5dbd 6606 50bd
00000370: 6ab9 e7bd 0371 c7bd 169f afbc c7e0 87bc
00000380: 5c57 803d 50ec 5e3c 0477 b4bd abad be3c
00000390: 7e9b 7fbd ce6e 80bd 5493 ebbd 31d3 3ebd
000003a0: 56a0 85bd 533a acbd 0faf 1bbb 8d6b 9ebd
000003b0: 1286 2d3c af3d cabc d4a5 5fbd 7c4f 94bd
000003c0: 76c9 adbd a1c2 cbbd e9fc aebd 1932 243d
000003d0: 3e0f c9bd 873e 83bd 082f 03be c929 bdbd
000003e0: 793b cbbd d9ac f2bb c187 7b3c 7c05 bc3c
000003f0: 0179 74bd 1f2a abbb f68b e2bc 31b1 f0bd
0.035216067 -0.07060628 -0.061131194 -0.1025178 -0.13559264 -0.014303994 -0.10591305 -0.09086193
-0.09868399 -0.08704991 -0.017009106 -0.02072283 -0.10099782 0.009955377 -0.054400146 0.09637031
-0.04239608 0.13151509 -0.023502281 0.0013515785 0.17356566 0.015882576 0.12620649 0.083949074
-0.043611985 -0.031873558 -0.028825196 -0.009290388 -0.085120864 -0.019441681 -0.010695725 0.028389573
-0.0035380963 -0.09703445 -0.052866865 0.044066016 0.0398169 -0.025976103 -0.06332097 -0.0046296585
0.14668576 -0.050774343 -0.045074735 -0.019074492 -0.050299104 0.10964903 0.16688693 0.0013523046
0.038449578 -0.07817032 0.037982557 0.03562373 -0.0015948294 -0.093574956 -0.06631943 -0.008150516
-0.019414525 -0.016551519 -0.011294299 -0.09017668 -0.049838055 0.0649383 -0.010127074 -0.036641583
0.005383079 0.031060124 -0.021545589 -0.03444802 -0.0029949055 -0.08083292 -0.10987192 -0.0561602
-0.02041672 0.08103546 -0.058898546 -0.024955094 -0.047332436 -0.13567173 -0.079996824 0.026035175
-0.09850032 -0.11569842 -0.04052202 -0.047257777 -0.0026337558 -0.13290751 -0.107370965 -0.13497625
-0.017508607 -0.08269983 -0.1833351 -0.15432341 -0.07823281 -0.09480197 -0.06666683 -0.15986714
-0.1535248 -0.16662914 -0.09905378 -0.013235461 -0.017024681 0.06805044 -0.07892072 -0.057444327
-0.08897067 0.01935165 -0.021809049 -0.0604908 -0.023382386 -0.10679444 0.19517525 -0.13633145
-0.019214978 -0.09067084 -0.06705646 0.256702 -0.0032559277 0.05649412 -0.07189083 -0.1558607
-0.0904921 0.13002609 -0.09741877 -0.043739486 -0.103195935 -0.044089437 -0.0026795617 -0.030275382
0.013349288 -0.026681198 -0.008376416 0.0039986023 -0.08051147 -0.058196872 -0.013793457 -0.0602426
0.014150161 0.03937053 0.0472908 0.015094004 -0.028508238 -0.0641675 0.045708593 -0.065282695
-0.01757189 0.029958785 0.025053745 0.00095764984 0.069102705 0.008157539 -0.031488653 -0.044075485
-0.07334827 0.021725256 -0.03459552 0.005287047 0.03437023 0.031337883 0.048250005 -0.049916778
-0.05179817 -0.033116866 -0.0046075154 0.049226448 0.0128388675 -0.01709263 -0.032461192 -0.069006816
-0.042123273 -0.04589704 -0.023176672 -0.05986461 -0.023603862 0.033781458 0.009259294 -0.07955518
-0.046467025 -0.066499434 -0.086607814 -0.051352557 0.023899328 -0.021124193 -0.030202748 -0.046275716
-0.11943524 -0.01461072 0.0605958 -0.033488274 -0.070944004 -0.03739127 0.02010453 0.077541456
-0.061343048 -0.043788437 0.0024269263 0.07942422 -0.0055462765 0.05762216 -0.05238632 -0.074036464
-0.05202624 0.053629264 0.0191023 0.011737651 0.06367769 -0.026176775 -0.04870361 -0.024841478
0.051007964 -0.017323803 -0.045710757 -0.06722262 0.043429982 0.050048664 0.065241255 -0.004488943
9.6993484e-05 0.023964476 -0.054123532 -0.050787352 -0.11314662 -0.09738352 -0.021438163 -0.016586674
0.062666625 0.013606146 -0.08811763 0.02327617 -0.06240415 -0.06271134 -0.1150271 -0.046588127
-0.06524722 -0.08409562 -0.0023755466 -0.077353574 0.010591047 -0.024687616 -0.054601505 -0.07241723
-0.08485691 -0.09949232 -0.085443325 0.04008684 -0.0981736 -0.064084105 -0.1281091 -0.092364855
-0.09923453 -0.007405859 0.0153521905 0.022951834 -0.05968571 -0.005223527 -0.02765463 -0.117525466

bias f4 [16]
00000000: 9739 18bf 8da6 dabe 24aa 44bf 3714 89be
00000010: 7b1b 02bd 94bf 323e 345b 97bd 9870 66bf
00000020: 9d62 0cbf c0ed a7bf da69 49bf 5862 07bf
00000030: 9b38 92bf 2a63 e4be 8a26 8abe 737f 6abd
-0.59462875 -0.42705193 -0.76822114 -0.26773235 -0.03176449 0.17455894 -0.073904425 -0.90015554
-0.5483797 -1.311943 -0.7867714 -0.52884436 -1.1423525 -0.44606906 -0.26982528 -0.05725045

weight f4 [2, 1024]
00000000: 60b6 5c3d d3c8 863d 724e 753d 9433 9e3c
00000010: b250 c3bc 7ca8 033d 1865 e13c 6147 713d
00000020: f44e 6bbc ee06 203d 8df5 64bd 8f0e c3bd
00000030: 0e41 e8bd 5b0a c8bc ec99 48bd 4eab 6d39
00000040: 151a f23c 6c8f c33c a7bd e0bd e4f1 20be
00000050: 89a8 0fbe 4dbf adbd 60f5 c1bd 2824 5bbd
00000060: e849 483c 82cc e63b d8c1 51bd 5c91 3fbe
00000070: a2aa 49be 1194 29be e90c 26be fc9a acbd
00000080: e387 57bc 3712 923c acbb f7bb 5d27 94bd
00000090: 5163 1dbe ab9d 2abe df6e 41be 4642 26bc
000000a0: a726 633b 21c8 193d 1aca 193d 94e6 94bd
000000b0: 99d4 cfbd d29f 28be 5a2b f1bd 6c88 55bd
000000c0: 6d19 81bc 8ef7 503d ba36 093d 9adb 71bd
000000d0: 1320 6dbd 50c8 2dbd f1a2 aabc bf58 b73c
000000e0: 9f58 26ba 0e08 813d 5a0c 0a3d ea5d 883c
000000f0: 6637 553d c573 4abb 80da 4fbc 475b 673c
00000100: 798d 643c ed35 053d 5762 ab3c fb9b 4a3d
00000110: 89f2 5d3a f01b 803a 278c 6fbb f524 f63c
00000120: ba17 a43d ddf1 343c 5786 403d 1ef8 8a3d
00000130: a9b5 b73d a756 013e 75ca e83d 46b9 583d
00000140: 6d7d aa3d 26a8 1b3d aaae ef3c 33ca 853d
00000150: 26d9 4a3e f4c1 3f3e 4c24 063e 0cae 013d
00000160: 0e3b a03d c3c5 963d 7ea3 b7bc 49c4 b9bc
00000170: 340c 393e 298b 373e e291 0c3e 5aee a03d
00000180: 0c59 963d 5b6c a03d 93b9 753d 800d dcbc
00000190: c8f4 98bc 5659 033e f7a8 423e 090b b33d
000001a0: f03f 843d 102a f93d 05ba dc3d ade0 a33d
000001b0: 1b67 bcbc 638f 643d 4505 2d3e b917 b03d
000001c0: cadf b43d 5616 f53d bb4f bb3d b693 af3d
000001d0: fe9a 7e3d 1b1d 0b3d 4bc1 d03d c442 423d
000001e0: 9bef 333d 0050 ac3d 7002 8b3d 5574 c83d
000001f0: 5427 463d d270 bb3c 06d4 5a3d 1bb3 753d
00000200: 4209 bdbc d837 1bbc d044 40bd 8ac2 bebc
00000210: c725 7bbc 22f0 d8bc 15a0 89bd 82b5 0bbd
00000220: 703f 4d3c 8ddd b73a 047b 85bc f252 1ebd
00000230: f5c0 4bbd 93c1 15bd 3866 a63c 6ac8 03bc
00000240: f791 fabc 70e8 88bd 8927 d5bd 337e 9cbd
00000250: ff12 8dbd d016 3b3b 16f5 523c 0d45 9ebc
00000260: a48d d5bc 3b5f bebd df7f 39be b64e 22bd
00000270: ac0b e6bc b059 8abd 9dd4 11bd 79c1 01bd
00000280: 6d0d 41bd 021d bfbd 16da 27be a785 3ebe
00000290: 2657 c4bd c11a b0bd 5f7d 9bbd ff37 d0b8
000002a0: f1c6 a7bc 9266 45bd 9e64 d4bd 00bc 5bbe
000002b0: 8de9 fdbd 3eec 6abd e0a3 4fbd 3ee2 08bd
000002c0: 9b7e bbbc 83dc 9bbd 97af a6bd fecb 4fbd
000002d0: d636 07be f696 eebd b038 26bd e061 88bc
000002e0: a5bf 723c 9dcc 73bd 68d2 93bd 48e5 383c
000002f0: 0f64 6fbc 8df2 fbbc 1778 b4bb a7db 963c
00000300: 9827 bd3c b93b 503d 70d0 8d3d 1aeb 153d
00000310: 8842 8d3d 726a be3d 1864 c03d 7831 c63d
00000320: f483 953d c02a 6f3d e6d2 893c 584d 3c3c
00000330: f6d8 b43c ebbf 7c3c 915d 4f3d 18dc fd3c
00000340: b49d a43d 1571 113d d35b cb3b 4d75 05bd
00000350: a0c5 6d3c d5a6 c33c 95b4 7c3d 77d6 a83c
00000360: 8e00 8c3d fc63 593d f9cf d6b9 f073 acbd
00000370: 8fd8 6dbc 301b 903b 3af1 9c3d 249e 7a3b
00000380: 44d5 da3d f92f 573d 185a 133c 340e 3bbd
00000390: c28d 823d a719 573d a152 c73d d198 723c
000003a0: 2ba4 cd3d 2ad1 eb3c e788 8d3c f67f 34bc
000003b0: 7e7c 223d 4f83 e13d 5914 ff3d 4e70 053d
000003c0: 6496 e13d 55f7 213d efb6 a43c 1322 8e3c
000003d0: aa6c ad3c 7a9d 2b3d 420b a03d e9c8 d93c
000003e0: 7363 983d 018e db3b 6bd6 d639 eef7 31bc
000003f0: f3ed 1dbc 782b a53a 89c8 f93c 1809 fd3c
0.053884864 0.06581273 0.059889264 0.019311704 -0.02384219 0.0321431 0.027514026 0.058905963
-0.014362086 0.03906911 -0.055898238 -0.09524261 -0.11340533 -0.024419 -0.048974916 0.00022665897
0.029553453 0.0238721 -0.10973673 -0.15717274 -0.14029135 -0.08483753 -0.0947063 -0.05350128
0.012224652 0.007043422 -0.051210254 -0.18707794 -0.19693998 -0.16560389 -0.16215862 -0.084279984
-0.0131549565 0.017830951 -0.007560214 -0.072340705 -0.15369917 -0.16661708 -0.1888995 -0.010147637
0.003466049 0.037544373 0.037546255 -0.07270542 -0.10147972 -0.16467217 -0.11775847 -0.052132055
-0.015759194 0.051017337 0.033499457 -0.05904732 -0.057891916 -0.04242736 -0.02082965 0.022381185
-0.0006345603 0.063003644 0.033703186 0.016646344 0.052054785 -0.0030891758 -0.012686372 0.014120883
0.013949745 0.03252213 0.020920916 0.04946516 0.00084666215 0.0009773951 -0.0036552043 0.03004692
0.08012338 0.011043993 0.047003116 0.06785606 0.08970196 0.12630711 0.113667406 0.052911066
0.08324704 0.038002156 0.029258091 0.06532707 0.19809398 0.18726331 0.13099784 0.031660125
0.07823764 0.07361939 -0.022416826 -0.022676604 0.18071061 0.17924179 0.13727525 0.07857962
0.07341203 0.07833167 0.05999143 -0.026861906 -0.018671408 0.12827048 0.19009767 0.08742339
0.064575076 0.12166226 0.10777668 0.08001838 -0.022998383 0.055800807 0.16896541 0.08598275
0.08831747 0.11967151 0.09146067 0.085730955 0.06215953 0.033963304 0.10193118 0.047426954
0.043929677 0.08413696 0.06787574 0.097878136 0.04837735 0.022880945 0.053424858 0.05998526
-0.023075704 -0.009473763 -0.046940625 -0.023286123 -0.015328831 -0.026481692 -0.06719986 -0.034108646
0.012527332 0.0014027819 -0.01629401 -0.03865332 -0.049744565 -0.03656156 0.020312414 -0.008043388
-0.03058718 -0.06684959 -0.10407931 -0.07641258 -0.06888389 0.0028547533 0.012875816 -0.019320035
-0.026068516 -0.092955075 -0.18115185 -0.039625846 -0.028081737 -0.06755388 -0.035603154 -0.03167865
-0.047131944 -0.09331705 -0.16391787 -0.18605672 -0.09586935 -0.08598853 -0.07592272 -9.928643e-05
-0.020480605 -0.04819352 -0.10370754 -0.21458435 -0.12398062 -0.057354204 -0.050693393 -0.033418886
-0.022887519 -0.07610419 -0.0813896 -0.05073165 -0.13204512 -0.11649887 -0.040581405 -0.016648233
0.014816199 -0.059521306 -0.07217866 0.011285134 -0.014611258 -0.030755306 -0.00550748 0.018415285
0.023090169 0.050838206 0.06924522 0.036601163 0.068974555 0.092976466 0.09394091 0.09677404
0.07300559 0.05839038 0.016824197 0.01149305 0.022076111 0.015426616 0.05062634 0.030988738
0.08037892 0.035508234 0.0062060147 -0.03258257 0.0145124495 0.023883263 0.061695654 0.020610077
0.06836043 0.05307387 -0.00040972212 -0.08420551 -0.014516964 0.0043977723 0.07663198 0.0038241232
0.106852084 0.052535985 0.008993648 -0.045667842 0.063746944 0.0525147 0.09732557 0.014806942
0.10041078 0.02878626 0.017277194 -0.011016836 0.039669506 0.11011373 0.12455053 0.032577805
0.11015013 0.039542515 0.02010676 0.017350232 0.02116998 0.04189823 0.07814647 0.02658506
0.074408434 0.006700278 0.00040977015 -0.010862334 -0.009639251 0.0012601456 0.03049113 0.030888125

bias f4 [2]
00000000: 28f9 823f ce6b 80bf
1.0232286 -1.0032899
